2025-04-14 09:41:54,270 - INFO - === Running Task 1 Experiments ===
2025-04-14 09:41:54,273 - INFO - Model Architecture: CNN(
  (conv1): Conv2d(1, 32, kernel_size=(3, 3), stride=(1, 1), padding=(1, 1))
  (pool1): MaxPool2d(kernel_size=2, stride=2, padding=0, dilation=1, ceil_mode=False)
  (conv2): Conv2d(32, 64, kernel_size=(3, 3), stride=(1, 1), padding=(2, 2))
  (pool2): MaxPool2d(kernel_size=2, stride=2, padding=0, dilation=1, ceil_mode=False)
  (conv3): Conv2d(64, 64, kernel_size=(3, 3), stride=(1, 1), padding=(1, 1))
  (pool3): MaxPool2d(kernel_size=2, stride=2, padding=0, dilation=1, ceil_mode=False)
  (flatten): Flatten(start_dim=1, end_dim=-1)
  (fc1): Linear(in_features=1024, out_features=256, bias=True)
  (fc2): Linear(in_features=256, out_features=128, bias=True)
  (fc3): Linear(in_features=128, out_features=10, bias=True)
)
2025-04-14 09:41:54,274 - INFO - Model successfully initialized.
2025-04-14 09:41:54,274 - INFO - === Running Task 2 Experiments ===
2025-04-14 09:41:54,314 - INFO - 
Training with Validation Split: 0%
2025-04-14 09:41:54,380 - INFO - DataLoaders initialized with batch size 64 and val_split 0.0
2025-04-14 09:41:54,380 - INFO - Train dataset size: 60000
2025-04-14 09:44:50,688 - INFO - === Running Task 1 Experiments ===
2025-04-14 09:44:50,692 - INFO - Model Architecture: CNN(
  (conv1): Conv2d(1, 32, kernel_size=(3, 3), stride=(1, 1), padding=(1, 1))
  (pool1): MaxPool2d(kernel_size=2, stride=2, padding=0, dilation=1, ceil_mode=False)
  (conv2): Conv2d(32, 64, kernel_size=(3, 3), stride=(1, 1), padding=(2, 2))
  (pool2): MaxPool2d(kernel_size=2, stride=2, padding=0, dilation=1, ceil_mode=False)
  (conv3): Conv2d(64, 64, kernel_size=(3, 3), stride=(1, 1), padding=(1, 1))
  (pool3): MaxPool2d(kernel_size=2, stride=2, padding=0, dilation=1, ceil_mode=False)
  (flatten): Flatten(start_dim=1, end_dim=-1)
  (fc1): Linear(in_features=1024, out_features=256, bias=True)
  (fc2): Linear(in_features=256, out_features=128, bias=True)
  (fc3): Linear(in_features=128, out_features=10, bias=True)
)
2025-04-14 09:44:50,692 - INFO - Model successfully initialized.
2025-04-14 09:44:50,692 - INFO - === Running Task 2 Experiments ===
2025-04-14 09:44:50,718 - INFO - 
Training with Validation Split: 0%
2025-04-14 09:44:50,753 - INFO - DataLoaders initialized with batch size 64 and val_split 0.0
2025-04-14 09:47:39,596 - INFO - Training completed for 0% validation split.
…
